long_train.pt (torch, 14295 bytes, 6 tensors)

network.0.weight f4 [32, 60]
0	0x3d70ae90	0.058760226
1	0x3dd51aba	0.10405488
2	0x3e412397	0.18861233
3	0x3e52779d	0.20553441
4	0x3e6c0ec9	0.23052515
5	0x3e4d919e	0.2007508
6	0x3e6f9337	0.23396002
7	0x3e91e228	0.28492856
8	0x3e01e12c	0.12683553
9	0x3e07f0f9	0.13275518
10	0x3e733682	0.23751262
11	0x3e4f5820	0.20248461
12	0x3e81e069	0.25366524
13	0xbe1c2b57	-0.15250908
14	0x3eb37fe1	0.350585
15	0x3e92aee4	0.28649056
16	0x3e260500	0.16212845
17	0x3e575aa9	0.21030678
18	0x3e85b847	0.26117155
19	0x3e4c5ffe	0.19958493
20	0x3dff10b4	0.12454358
21	0x3d5d825c	0.0540794
22	0xbe6f71d3	-0.23383264
23	0x3b62ac03	0.003458739
24	0xbcde3391	-0.027124198
25	0x3de87b03	0.113515876
26	0x3e0168ff	0.12637709
27	0x3dfe1087	0.12405496
28	0x3e759dec	0.23986024
29	0x3d1e40a1	0.038635854
30	0xbe15242f	-0.14564584
31	0xbdbdb950	-0.09263861
32	0xbe2f6f19	-0.17132224
33	0xbe18bf27	-0.14916669
34	0x3d5fa86e	0.054603986
35	0xbd7b0725	-0.06128611
36	0x3d3628c3	0.044472467
37	0x3e0d7170	0.13812804
38	0xbc67446f	-0.014115437
39	0x3e3b67cd	0.18301316
40	0xbe2700ff	-0.16308974
41	0xbdb8555d	-0.09000657
42	0xbd9fb942	-0.07799007
43	0xbd3dd24e	-0.04634314
44	0xbd575ec2	-0.052580602
45	0x3e0a88af	0.13528703
46	0x3d9c406e	0.076294765
47	0xbd498779	-0.049201462
48	0x3db7e2f3	0.08978834
49	0xbd15a844	-0.036537424
50	0x3d37f5ee	0.04491227
51	0xbd5e6284	-0.05429317
52	0xbdaedc35	-0.08538095
53	0x3d3de05c	0.046356544
54	0xbda510f5	-0.08059875
55	0x3c29c174	0.010361064
56	0x3d4af944	0.049554124
57	0xbe03584e	-0.12826654
58	0xbdb5d686	-0.08878808
59	0xbdbe47f0	-0.09291065
60	0x3e4beae2	0.1991382
61	0x3d256924	0.040383473
62	0x3c735adc	0.0148532055
63	0x3e19072c	0.14944142
64	0x3e3aeb77	0.18253885
65	0x3c2c93c3	0.010533276
66	0xb994aa72	-0.0002835575
67	0xbc30649a	-0.010766173
68	0x3e122f31	0.14275815
69	0x3e206519	0.15663566
70	0x3dc20fbd	0.09475658
71	0x3e120cb4	0.14262658
72	0x3cf764e3	0.030199474
73	0x3d899144	0.0671716
74	0x3bc2b33b	0.005941776
75	0x3e3c6193	0.18396597
76	0x3dbb56c7	0.09147411
77	0x3d185f38	0.037200183
78	0x3d8e027c	0.069340676
79	0x3dfa33b0	0.1221689
80	0x3dacbd26	0.08434515
81	0x3c431dce	0.011908961
82	0x3e9aa447	0.3020346
83	0x3eb438c1	0.3519955
84	0x3e09cf0a	0.13457885
85	0xbcd20b05	-0.02564002
86	0x3e199134	0.14996797
87	0xb9e56c5a	-0.00043759012
88	0xbbd3a206	-0.0064585237
89	0x3e004ec5	0.12530048
90	0x3ea0401d	0.31298915
91	0x3ef0291c	0.46906364
92	0x3ebf15a2	0.37321192
93	0x3e9ffe4a	0.31248695
94	0x3e83c5d8	0.2573688
95	0x3cd31721	0.025767865
96	0x3e0b71bf	0.1361761
97	0x3be40a31	0.0069592227
98	0x3db5ec71	0.08882988
99	0x3de8384b	0.11338862
100	0x3e91344b	0.2836021
101	0x3ea2d595	0.31803575
102	0x3e845d09	0.2585223
103	0x3cf6f59f	0.030146418
104	0x3e76df4f	0.24108623
105	0x3d024c8a	0.031811275
106	0x3e0ce09e	0.1375756
107	0x3d63cd4c	0.05561571
108	0x3e14b5ca	0.14522472
109	0xbbf9dae7	-0.007624972
110	0xbcc51083	-0.024055725
111	0xbdb0254a	-0.08600862
112	0x3dcb62fc	0.09930989
113	0x3d03093b	0.031991225
114	0xbd624770	-0.05524391
115	0x3d63ffc3	0.055663835
116	0x3db5872d	0.08863673
117	0xbdf2c00d	-0.11853037
118	0x3dc96e41	0.098354824
119	0xbbc38736	-0.005967046
120	0xbd93d213	-0.07217803
121	0x3dc89818	0.097946346
122	0xbd8c3e1d	-0.06847785
123	0xbd2b3269	-0.04179612
124	0x3def0a02	0.11671831
125	0xbd2413cd	-0.040057946
126	0x3d3b6da2	0.04575885
127	0xbd558047	-0.052124288
128	0x3c653c64	0.013991449
129	0x3d55491f	0.052071687
130	0xb93735d1	-0.00017472288
131	0xbcbe937d	-0.023263687
132	0x3dbe8896	0.093033955
133	0x3e6cd0b9	0.23126496
134	0xbcf0286c	-0.02931615
135	0xbd52c29b	-0.05145512
136	0x3d30009c	0.04296933
137	0x3d8dc7fb	0.06922909
138	0xbd62c8ee	-0.055367403
139	0xbe14f923	-0.14548163
140	0x3c935b80	0.017987967
141	0x3dfddd8f	0.123957746
142	0x3eb7e389	0.35915783
143	0x3e222349	0.15833773
144	0x3d8435ad	0.0645555
145	0xbd3b0af6	-0.04566475
146	0xbc0f56ae	-0.008748693
147	0x3d3d02a7	0.046145108
148	0xbd9bbd18	-0.07604426
149	0xbd9ec182	-0.077517524
150	0x3e217589	0.15767492
151	0x3ea71982	0.32636648
152	0x3ee834a2	0.45352656
153	0x3e6de8d8	0.23233354
154	0x3d9813a2	0.0742562
155	0x3db9384a	0.090439394
156	0xbdb110b9	-0.08645768
157	0x3dabfc1d	0.08397696
158	0xbdd4a7b5	-0.1038355
159	0xbc0b9ecf	-0.00852175
160	0x3e9831d3	0.29725513
161	0x3ee64f23	0.44982252
162	0x3ed19257	0.4093196
163	0x3e267863	0.16256861
164	0x3dd79d39	0.10528035
165	0xbd419e41	-0.047270063
166	0xbdd40b18	-0.103536785
167	0xbdca1482	-0.09867193
168	0xbcbd62ba	-0.023118366
169	0x3d4adfae	0.049529724
170	0x3dde6b5c	0.10860321
171	0x3cc02d06	0.023458969
172	0xbd67be8d	-0.056578208
173	0x3d62911b	0.055314165
174	0xbb972bc1	-0.00461337
175	0xbd62a870	-0.055336416
176	0x3d94029b	0.072270595
177	0x3dbf0890	0.09327805
178	0x3dfaff3f	0.122557156
179	0xbd00af4a	-0.03141717
180	0x3e130fcf	0.14361499
181	0x3dc3ccd1	0.0956055
182	0xbd9d9f34	-0.07696381
183	0x3e01feff	0.1269493
184	0x3e071f88	0.13195622
185	0xbc59193d	-0.013250646
186	0x3adcac5c	0.0016836035
187	0xbdbaa1a6	-0.09112863
188	0x3dd330ca	0.1031204
189	0xbdd83e28	-0.1055873
190	0xbd0c3e4f	-0.03423911
191	0xbd08cf9d	-0.03340112
192	0x3de164a9	0.110055275
193	0x3d9ef3a7	0.07761317
194	0xbdd5ae1c	-0.10433599
195	0x3dad78f8	0.084703386
196	0x3dcb611f	0.09930634
197	0x3cb6c00a	0.022308368
198	0xbd9abd1f	-0.07555603
199	0x3c8651e3	0.016396469
200	0x3e0f7b50	0.14011884
201	0x3bebbf3a	0.007194427
202	0x3e8a2c6e	0.26987022
203	0x3e7834ba	0.24238864
204	0x3e59f4fe	0.21284863
205	0xbc93dfe1	-0.01805109
206	0x3d73997a	0.05947254
207	0xbdf2ec52	-0.11861481
208	0x3dc07181	0.09396649
209	0x3da53276	0.08066265
210	0x3d9f844a	0.07788904
211	0x3e90dc63	0.28293142
212	0x3e880da1	0.26572898
213	0x3e21779d	0.15768285
214	0x3de434b9	0.111428685
215	0x3d9a8b4d	0.07546101
216	0x3e323129	0.17401566
217	0x3d17bf4c	0.03704767
218	0x3d826d2b	0.063684784
219	0x3dcca0ac	0.09991583
220	0x3e3b6dcf	0.18303607
221	0x3ed8a983	0.42316827
222	0x3eee956b	0.46598372
223	0xbd14bdf2	-0.03631396
224	0xbc605f54	-0.013694603
225	0x3d549271	0.05189747
226	0xbba80ea7	-0.0051287
227	0xbcc6af50	-0.024253517
228	0xbc05955b	-0.008153285
229	0x3cdfe235	0.027329544
230	0xbde5cabe	-0.11220311
231	0xbd89886e	-0.06715475
232	0xbbf0e89d	-0.0073519484
233	0xbd880fe1	-0.06643654
234	0x3c70b875	0.0146924155
235	0x3d83dad7	0.06438225
236	0x3c9fd08d	0.019508624
237	0x3cb21467	0.021738244
238	0x3d1c75f1	0.038198415
239	0x3d9ab181	0.075533874
240	0x3e55cbc7	0.20878516
241	0x3e59f622	0.21285298
242	0x3e75b965	0.23996504
243	0x3d9bf303	0.0761471
244	0x3d9c9c76	0.0764703
245	0x3e6b9e32	0.23009565
246	0x3df64550	0.12024939
247	0x3e7561f4	0.23963147
248	0x3e68ff76	0.227537
249	0x3e54da2e	0.20786354
250	0x3d6503f6	0.05591198
251	0x3e0582cc	0.13038176
252	0x3e85981c	0.26092613
253	0x3e9aae6b	0.30211195
254	0x3c732988	0.014841445
255	0x3daf3437	0.08554881

network.0.bias f4 [32]
0	0x3e644610	0.22292352
1	0xbc49d1ce	-0.012318088
2	0xbcba796c	-0.022762977
3	0xbda42b83	-0.08016112
4	0x3e3dda30	0.18540263
5	0xbdaffe55	-0.08593432
6	0x3e07823b	0.13233273
7	0xbdbf147f	-0.09330081
8	0x3e1b0068	0.15136874
9	0x3d974163	0.073855184
10	0x3e306b2d	0.17228384
11	0xbe00dc6f	-0.12584089
12	0xbc968478	-0.018373713
13	0x3e4803e5	0.19532736
14	0x3d22b9e2	0.039728053
15	0xbcf13207	-0.0294428
16	0x3d2686f6	0.040656053
17	0xbc4d2f62	-0.012523504
18	0x3ca3c3d2	0.019990835
19	0x3dee838a	0.11646183
20	0xbc19baf1	-0.009382949
21	0x3dd93d03	0.1060734
22	0xbdac1b18	-0.08403605
23	0x3e23e13c	0.16003889
24	0xbd938352	-0.07202782
25	0xbd106627	-0.03525367
26	0x3db8bbd6	0.09020202
27	0xbcdde2e7	-0.027085735
28	0x3e87971c	0.26482475
29	0xbe077d87	-0.13231479
30	0xbdaa2b6a	-0.08309062
31	0x3cebd69e	0.02878886

network.2.weight f4 [32, 32]
0	0x3e131153	0.14362077
1	0x3d83925f	0.064244024
2	0xbe60eaa1	-0.21964504
3	0xbe5c249f	-0.21498345
4	0xbdf9bd03	-0.12194254
5	0x3dc869a4	0.09785774
6	0x3d9fefeb	0.078094326
7	0x3d922861	0.07136608
8	0xbcd4e4f3	-0.025988078
9	0xbdb9dfc5	-0.09075884
10	0x3e1e10ca	0.15436092
11	0xbe696c84	-0.22795302
12	0xbd59fb85	-0.053218383
13	0xbd125f24	-0.035735264
14	0x3d9ee2c4	0.07758096
15	0xbdb9bf08	-0.090696394
16	0xbe077a2c	-0.13230199
17	0xbca90141	-0.02063048
18	0xbe07059f	-0.13185738
19	0xbdb9cc26	-0.09072141
20	0xbc3f8460	-0.0116892755
21	0xbb8785b1	-0.0041358103
22	0xbe1b95b6	-0.15193829
23	0x3d6428af	0.05570286
24	0xbe019473	-0.12654285
25	0xbd285e26	-0.041105412
26	0xbe043f20	-0.12914705
27	0x3d38780f	0.04503637
28	0x3dd467e1	0.10371376
29	0xbe0b2e9e	-0.13592002
30	0xbd4eaefb	-0.050459843
31	0xbdad319f	-0.0845673
32	0xbde321be	-0.1109042
33	0x3e25322a	0.16132417
34	0xbe1ded65	-0.1542259
35	0x3d4035e3	0.04692639
36	0x3e182007	0.14855967
37	0x3eb72813	0.35772762
38	0x3d393ff4	0.045227006
39	0xbc587b51	-0.013212995
40	0x3e552f5e	0.2081885
41	0x3ae727d1	0.0017635768
42	0x3e3855a6	0.18001422
43	0x3ead2998	0.33820796
44	0xbdab5c61	-0.08367229
45	0x3d5404aa	0.05176226
46	0x3e3aebcc	0.18254012
47	0x3e139fbf	0.14416407
48	0x3ec63912	0.38715416
49	0x3cf44fc0	0.029823184
50	0x3ccabda1	0.024748625
51	0x3e8ba0d7	0.2727115
52	0xbe8147bc	-0.2525004
53	0x3ed93157	0.42420456
54	0xbe68364a	-0.2267696
55	0x3e1cb3a9	0.1530291
56	0xbeb5b010	-0.35485888
57	0xbcd86dcb	-0.02641954
58	0x3ddd16d3	0.10795369
59	0xbe4fdc67	-0.2029892
60	0xbed96178	-0.42457175
61	0x3cdacebe	0.02670991
62	0x3d941679	0.07230849
63	0xbe000a59	-0.12503947
64	0x3c9f746d	0.019464696
65	0x3ea3b058	0.31970477
66	0x3eddce6f	0.4332156
67	0x3ea8e37c	0.32986057
68	0x3e093057	0.13397346
69	0xbee67817	-0.45013496
70	0x3e4f2f9d	0.20233007
71	0x3eac033f	0.33596227
72	0xbe059ec7	-0.1304885
73	0x3ed4fb75	0.41598096
74	0xbdac1c7a	-0.08403869
75	0xbe24959e	-0.160727
76	0x3ef24f36	0.47326058
77	0xbe571491	-0.21003939
78	0x3ea7016e	0.32618278
79	0x3e9fed3f	0.31235692
80	0xbeb42970	-0.35187864
81	0x3e0a0274	0.13477498
82	0x3efaaa36	0.48957986
83	0xbe3e0139	-0.18555154
84	0x3e9eb851	0.30999997
85	0xbe89c2d1	-0.26906446
86	0x3f0fa29a	0.56107485
87	0xbd82c9dc	-0.06386158
88	0x3efceb07	0.49398062
89	0x3e94cf15	0.2906424
90	0xbd5c7c96	-0.053829752
91	0x3ed80263	0.4218932
92	0x3e9b51d8	0.3033588
93	0x3e1cf2b1	0.15326954
94	0x3d9250dc	0.07144329
95	0x3eb619f0	0.35566664
96	0x3c9bda3a	0.019024957
97	0xbdb7ee18	-0.0898096
98	0x3dd82293	0.105534695
99	0xbd93c775	-0.07215778
100	0x3dfaed14	0.1225225
101	0x3ec629ef	0.38703868
102	0x3e78a64b	0.24282186
103	0x3db9c929	0.090715714
104	0x3e16a670	0.14711928
105	0xbc029017	-0.007968924
106	0x3eaad2d1	0.33363965
107	0x3e9638cb	0.29340205
108	0x3e2c7999	0.16843261
109	0xbd541b8a	-0.051784076
110	0xbe05db78	-0.13072002
111	0x3c3e106f	0.011600598
112	0x3e97beb2	0.29637676
113	0x3d0c1be8	0.0342063
114	0xbe8d6ed7	-0.27623627
115	0x3e92adb1	0.2864814
116	0xbd962a96	-0.073323414
117	0x3eadc380	0.33938217
118	0xbe0bb608	-0.13643658
119	0x3e6553d4	0.22395259
120	0xbe7ac68b	-0.244898
121	0x3d5b84a0	0.053593278
122	0x3e882aba	0.26595098
123	0xbe119958	-0.14218652
124	0xbe6a8e42	-0.2290583
125	0x3e110cc3	0.14165024
126	0x3e0f2f3f	0.13982867
127	0xbe36e887	-0.1786214
128	0xbea0c441	-0.3139973
129	0x3e2181e1	0.15772201
130	0x3eb666d7	0.35625336
131	0x3ea46447	0.32107756
132	0xbb96d150	-0.0046025887
133	0xbebf0ea9	-0.37315872
134	0x3e0e0d87	0.13872348
135	0x3f107924	0.56434846
136	0xbea874a6	-0.32901496
137	0x3e4d0473	0.20021228
138	0xbe844982	-0.25837332
139	0xbee7dd51	-0.4528604
140	0x3e627468	0.22114718
141	0xbea2688d	-0.3172039
142	0x3e906cb3	0.2820793
143	0x3ed8aa59	0.42317465
144	0xbe1bd350	-0.15217328
145	0xbdf1c1e8	-0.11804563
146	0x3eae005e	0.33984655
147	0xbe496391	-0.19666888
148	0x3f035462	0.5130063
149	0xbeb2ee72	-0.34947544
150	0x3ed901a3	0.4238406
151	0x3d12928f	0.0357843
152	0x3ea4efe4	0.32214272
153	0x3e6f967e	0.23397252
154	0xbe936430	-0.28787374
155	0x3ef1e035	0.4724137
156	0xbd8dcf23	-0.06924274
157	0xbe1dccab	-0.15410106
158	0x3dbfd4f9	0.09366793
159	0x3e9b097e	0.3028068
160	0x3d7ab1e4	0.061204806
161	0x3e94f8cd	0.2909607
162	0x3ecb72a5	0.39735904
163	0x3e9aa60d	0.30204812
164	0x3e7dc6fb	0.24782936
165	0xbea4ad69	-0.3216355
166	0x3e6a9593	0.2290862
167	0x3ede8a3e	0.43464845
168	0xbea70a69	-0.3262513
169	0x3ea7145e	0.32632726
170	0xbeb2faba	-0.34956914
171	0xbe898adc	-0.26863754
172	0x3eccb2af	0.39980075
173	0x3d99cc31	0.075096495
174	0x3e575722	0.21029332
175	0x3e896173	0.2683216
176	0xbed704f8	-0.41995978
177	0x3d190076	0.037353955
178	0x3ef32b31	0.4749389
179	0xbe3638e4	-0.1779514
180	0x3f08c95f	0.5343227
181	0xbe56b6eb	-0.20968215
182	0x3f0c4457	0.5479178
183	0xbd211a8c	-0.039331958
184	0x3ebf8ad5	0.37410608
185	0x3ec15f91	0.37768224
186	0xbdf9e768	-0.1220234
187	0x3ef6ed3e	0.48227876
188	0x3ebe8323	0.37209424
189	0x3e1ab5c5	0.15108402
190	0x3da6d6f1	0.081464656
191	0x3ee93c6a	0.45553905
192	0xbd6946d5	-0.056952316
193	0x3e68fe63	0.22753291
194	0x3e8f55d1	0.2799516
195	0x3e8787c4	0.26470768
196	0x3e78ec73	0.24308948
197	0xbedb2e98	-0.42808986
198	0x3e726d65	0.23674543
199	0x3f030b6d	0.5118931
200	0xbea5395e	-0.3227033
201	0x3ee5db60	0.44893932
202	0xbeb98c1a	-0.36239702
203	0xbe0a1be1	-0.13487197
204	0x3edede34	0.43528903
205	0xbe4645f4	-0.19362622
206	0x3e8fce4f	0.28087088
207	0x3e397162	0.18109658
208	0xbdd0e9b3	-0.102008246
209	0xbe1bb7f1	-0.15206887
210	0x3eec95c9	0.46208027
211	0xbe8b1d62	-0.27170855
212	0x3e9ce33d	0.3064212
213	0xbe2f4b65	-0.17118604
214	0x3f0a50c8	0.5402951
215	0xbdaa5951	-0.08317817
216	0x3eb23f26	0.34813803
217	0x3ed42e47	0.41441557
218	0xbe102cdb	-0.14079611
219	0x3ec86fc6	0.39147776
220	0x3eb0e20f	0.3454747
221	0xbdf849f8	-0.121234834
222	0xbe100bc1	-0.14066984
223	0x3ea47b11	0.32125142
224	0x3da1d884	0.07902625
225	0x3dbcf3cf	0.0922619
226	0x3eb81e46	0.35960597
227	0x3ec239ac	0.37934625
228	0x3e568531	0.20949246
229	0xbe82c88a	-0.25543624
230	0x3dafca22	0.08583476
231	0x3ee7926b	0.45228896
232	0xbe2a02ca	-0.16602626
233	0x3e5c8f78	0.21539104
234	0xbe920660	-0.2852049
235	0xbd413c38	-0.04717657
236	0x3e2ec4fd	0.17067333
237	0x3c3df63c	0.011594351
238	0x3d7e00fa	0.06201265
239	0x3e46dcbf	0.19420145
240	0xbe156ca5	-0.14592226
241	0x3d46f0c5	0.04856946
242	0x3eb748ed	0.35797825
243	0xbd9427b9	-0.07234139
244	0x3ef81744	0.4845525
245	0xbe8d6464	-0.27615654
246	0x3ece7f9b	0.4033173
247	0xbecfc3b9	-0.40579012
248	0x3f083ad4	0.53214765
249	0x3edf04f9	0.4355848
250	0xbb36e216	-0.0027905754
251	0x3e989c9b	0.2980698
252	0x3ea342b1	0.3188682
253	0xbd1d299a	-0.038369752
254	0xbdb9600b	-0.09051522
255	0x3ed30af6	0.412193

network.2.bias f4 [32]
0	0x3e1e44aa	0.15455881
1	0xbdd59dac	-0.10430464
2	0xbca9cc9f	-0.020727454
3	0xbd4880f1	-0.048951093
4	0x3cd55bb8	0.026044711
5	0xbdbfa476	-0.0935754
6	0x3b1a7f9e	0.00235746
7	0x3db1d839	0.08683819
8	0x3e4eeef6	0.20208344
9	0x3e455c29	0.19273438
10	0x3b5aa38b	0.003336164
11	0x3d4cfb69	0.05004445
12	0xbc9134aa	-0.017725307
13	0x3e1e7fc1	0.15478422
14	0x3e3a62fb	0.1820182
15	0xbdfc8496	-0.12329976
16	0xbe1affc1	-0.15136625
17	0xbddc3ab0	-0.10753381
18	0x3e1a8c23	0.1509252
19	0x3d5aa5b0	0.05338067
20	0x3c995046	0.018715035
21	0x3d38d004	0.045120254
22	0x3d963a25	0.07335309
23	0xbd567fac	-0.05236785
24	0x3e8097cc	0.25115812
25	0xbe1f5054	-0.15557986
26	0xbdabb1d0	-0.083835244
27	0x3d7b9603	0.06142236
28	0xbd1ca759	-0.038245533
29	0x3d922fb9	0.071380086
30	0x3e0e959b	0.13924257
31	0x3d306347	0.04306343

network.4.weight f4 [2, 32]
0	0xbdf37ab6	-0.1188864
1	0xbed3a208	-0.41334558
2	0x3ebcbeb4	0.36864245
3	0xbe823bb9	-0.2543619
4	0x3f1da34a	0.61577284
5	0x3ef923df	0.4866018
6	0x3eb8b21a	0.3607338
7	0x3ed47be4	0.4150077
8	0xbe998be5	-0.29989544
9	0xbdca787f	-0.09886264
10	0x3f131215	0.57449466
11	0x3caba232	0.020951364
12	0x3ec8b523	0.39200696
13	0xbe9a6203	-0.30152902
14	0x3eee7ac1	0.4657803
15	0xbdb59559	-0.088663764
16	0x3e0697d6	0.13143858
17	0x3d8ced04	0.06881145
18	0xbed38a70	-0.41316557
19	0x3f023401	0.508606
20	0xbe9c9602	-0.30583197
21	0x3d0b1c87	0.033962753
22	0x3eac3fe0	0.33642483
23	0x3f1fb7c7	0.62389797
24	0xbe987324	-0.29775345
25	0xbce5915b	-0.028023412
26	0x3efca21e	0.49342436
27	0x3d31b195	0.043382246
28	0x3ed0031e	0.40627378
29	0xbeba4368	-0.36379552
30	0x3ed3b80d	0.41351357
31	0x3f241d49	0.64107186
32	0x3dbb2fe4	0.09139994
33	0x3e089c6c	0.1334092
34	0xbceda107	-0.029007448
35	0xbdc4d461	-0.096108206
36	0x3e2eb752	0.17062119
37	0xbdca06fe	-0.09864615
38	0xbd95f50e	-0.07322131
39	0xbc7825b9	-0.0151457125
40	0x3dc1c1fe	0.09460829
41	0xbe21b18f	-0.1579039
42	0x3c8af22c	0.01696118
43	0xbcc0c8f7	-0.023533328
44	0xbd8ca742	-0.068678394
45	0xbe349738	-0.1763581
46	0x3dc477ad	0.09593139
47	0xbdabc3f4	-0.083869845
48	0x3d0e0b3b	0.03467868
49	0xbd2ef7b9	-0.042716715
50	0xbe2e0585	-0.16994293
51	0xbdc124b0	-0.09430826
52	0x3dcc86a0	0.09986615
53	0x3e188f5c	0.14898437
54	0x3e27b119	0.16376151
55	0x3d3ba334	0.04580994
56	0x3e16f075	0.14740165
57	0xbcc5dd5f	-0.02415341
58	0xbdd60c15	-0.10451523
59	0x3e112b57	0.14176689
60	0xbd99e017	-0.07513445
61	0x3d85bb8a	0.06529911
62	0x3d8d025e	0.06885217
63	0xbc8d3e51	-0.017241629

network.4.bias f4 [2]
0	0x3e3b86d0	0.18313146
1	0xbd888d04	-0.066675216
