long_train2.pt (torch, 14295 bytes, 6 tensors)

network.0.weight f4 [32, 60]
00000000: 11d1 ec3d 43cf 243e 5467 7b3e 8f5d 863e
00000010: ef27 933e 93ff 963e 10cc a23e 22c9 c23e
00000020: cd71 733e 6b0f 713e a718 9a3e cb5d 873e
00000030: 5725 123e 356c 1ebe f73a c33e c87a c63e
00000040: 777a 813e a87c 9f3e b782 c13e ece4 a03e
00000050: 159b 443e f67e 683d 8d64 82be 9616 a93c
00000060: 54ec 573c ef96 603e 1a83 653e 18b7 6f3e
00000070: 26b8 b73e bbc4 203e e5f5 06be b3fe 40be
00000080: 6d77 15be 6607 02be d0e9 b33d 3c80 653c
00000090: ea61 fa3d 937c 653e e583 9b3d 2b1a 8a3e
000000a0: 5749 bdbe fcc2 5bbe 96a4 debd 34e1 a0bd
000000b0: 7373 9ebd c69f 073e 2b1d bf3d 3ce1 18bd
000000c0: 4d73 d13d 26b9 d8bc eef5 373d 8462 5ebd
000000d0: 35dc aebd 5ce0 3d3d f510 a5bd 74c1 293c
000000e0: 44f9 4a3d 4e58 03be 86d6 b5bd f047 bebd
000000f0: 8657 3e3e e363 de3c 93a8 d33a 3d74 0b3e
00000100: 1758 2d3e 8a62 87bd ddff 47bd b2a9 b8bd
00000110: 0942 503d 9803 993d 2173 ce3d 1281 1a3e
00000120: 306e 843e 18a3 2e3e b6e2 4f3d 4619 063e
00000130: db7a 7f3d d02c 71bc 49e5 6bb9 a783 423d
00000140: 8ecd b43d a276 b23d 8dde c73e be22 d13e
00000150: 47ed 1e3e f23c 9abd 2e90 ef3d 6d95 5bbd
00000160: 5e0b 8ebd 016e 723d 6a01 b43e dbf5 1b3f
00000170: e13d c33e 3ead a93e cb56 853e e91a 34bc
00000180: f266 ce3d 9404 27bd 2dd2 143d 6d22 813d
00000190: 942d 073f aade ef3e 564b a03e 4310 b43d
000001a0: 6e39 953e 4b17 753d da85 163e 0ee1 8b3d
000001b0: 4083 203e 66d7 ca3b 8310 c5bc 4a25 b0bd
000001c0: fc62 cb3d 3b09 033d 7047 62bd c3ff 633d
000001d0: 2d87 b53d 0dc0 f2bd 416e c93d 3687 c3bb
000001e0: 2556 a9bd 0614 b33d 2fc2 a1bd 2239 56bd
000001f0: f385 d93d 08c9 d2bd ad47 383b 3981 f0bd
00000200: 5f23 85bd 23b4 91bc e82e bebb 4dd6 ddbc
00000210: bab7 8c3e 59bb 983e cc69 94ba 7897 dabd
00000220: a418 aa3b 2a9f 683c b61d 02be 69dc 5fbe
00000230: 5425 bcbb 5e1d 2c3e fab7 d73e fcfb 3b3e
00000240: 34d9 7c3d f40b efbd 92e1 88bd 5878 eabc
00000250: 9719 24be f406 27be 84d9 333e 9b80 e73e
00000260: 314b e63e 439e 703e bc5e 793d f642 133d
00000270: 89fa 10be 0d8f 973c 14ea 31be 2b5e 9bbd
00000280: 5543 093f 28fb 173f 2c58 ea3e 7b37 593e
00000290: 9d19 173e 5fe6 e2bc e96f d4bd a837 c1bd
000002a0: aad1 a2bc 4ed0 613d 5c6b de3d 062d c03c
000002b0: 8dbe 67bd 1b91 623d c12b 97bb 70a8 62bd
000002c0: 9b02 943d 9008 bf3d 3fff fa3d 4aaf 00bd
000002d0: 2616 093e cbda af3d 3091 b1bd a50a f03d
000002e0: 1c4c fa3d 8f01 9cbd f057 26bd 2d0b 20be
000002f0: fc6a c63c 786b 33be cf3a 18bd 2b3a 0dbd
00000300: 5e3b 973e 2513 193e 612e 9bbd eaac 013d
00000310: 713a 833d fab7 fabc a65c 14be ebc2 5fbd
00000320: bb69 f73d 2856 663d 2e9d ac3e 12d6 8b3e
00000330: 8246 5b3e b0e3 aebd da94 b33b b91b 42be
00000340: 00a8 5d3c d39a b4ba 598a d13d 77b7 d33e
00000350: a922 883e 4563 283e 4628 d33d ce23 dc3c
00000360: 5faf ff3d 2cf4 b8bc e2da d3b9 f860 1d3d
00000370: 3f56 d93e 3103 123f 6e46 043f 0e52 843c
00000380: ed42 033d ef48 9a3d c4be c6ba dcbd 84bc
00000390: 9877 91ba 197d 163d beca e5bd 6e88 89bd
000003a0: 9de8 f0bb e10f 88bd 75b8 703c d7da 833d
000003b0: 8dd0 9f3c 6714 b23c f175 1c3d 81b1 9a3d
000003c0: 4806 5c3e a330 603e e6f3 7b3e b96c a83d
000003d0: 2d16 a93d cf68 263e 3c1b b63d 30d9 2b3e
000003e0: 7fb3 143e 8461 0b3e 4f04 d23d 4bc0 373e
000003f0: 3969 0b3f 6f2b ec3e 633e cb3d 26d4 823d
0.11563314 0.16094689 0.24551135 0.26243255 0.28741404 0.29491863 0.31796312 0.38044077
0.2377388 0.23541038 0.30096933 0.26438746 0.14272057 -0.15470965 0.38130924 0.3876555
0.25288746 0.31149793 0.3779504 0.31424654 0.19199784 0.056761704 -0.2546734 0.020640653
0.013178904 0.21932577 0.22413293 0.23409688 0.35882682 0.15700047 -0.13179739 -0.1884716
-0.14596339 -0.12698135 0.087848306 0.014007624 0.12225707 0.22410803 0.07593516 0.2697309
-0.36970016 -0.214611 -0.10871236 -0.07855454 -0.07736864 0.13244542 0.09331735 -0.037324175
0.1022707 -0.026455473 0.04491227 -0.05429317 -0.08538095 0.046356544 -0.08059875 0.010361064
0.049554124 -0.12826654 -0.08878808 -0.09291065 0.18588075 0.02714724 0.0016148261 0.1361856
0.16928135 -0.06610592 -0.048827995 -0.09016742 0.050844226 0.074713886 0.10080553 0.15088299
0.25865316 0.17054403 0.050753318 0.13095579 0.062373023 -0.014720157 -0.00022496762 0.047488835
0.08828269 0.08714034 0.3903698 0.4084682 0.15520202 -0.07531156 0.11697422 -0.0536093
-0.06935762 0.05918694 0.3515733 0.6092202 0.38133147 0.33139986 0.2604278 -0.010992744
0.10078229 -0.04077585 0.03633325 0.06305394 0.5280392 0.46849567 0.31307477 0.08792164
0.29145378 0.059836667 0.14699498 0.06830035 0.15675068 0.0061902283 -0.024055725 -0.08600862
0.09930989 0.031991225 -0.05524391 0.055663835 0.08863673 -0.11853037 0.098354824 -0.005967046
-0.08268384 0.087440535 -0.07898366 -0.05230058 0.10621252 -0.1029225 0.0028118894 -0.11743397
-0.06500887 -0.017786091 -0.0058039315 -0.027079726 0.27483922 0.29830435 -0.0011323034 -0.106734216
0.0051909257 0.014198104 -0.12706646 -0.21861424 -0.0057417545 0.16808078 0.4213255 0.18357843
0.06173058 -0.11672202 -0.06683649 -0.028621837 -0.16025387 -0.16311246 0.17563444 0.45215306
0.44979241 0.23497872 0.06088136 0.03595253 -0.14158072 0.01850083 -0.1737445 -0.075863205
0.53618366 0.5936761 0.45770395 0.2121257 0.14755864 -0.02769774 -0.10372908 -0.09434444
-0.019875366 0.055130295 0.10860321 0.023458969 -0.056578208 0.055314165 -0.00461337 -0.055336416
0.072270595 0.09327805 0.122557156 -0.03141717 0.13387355 0.08586653 -0.086702704 0.1172078
0.12221548 -0.07617485 -0.040611207 -0.15629263 0.024220936 -0.17521465 -0.03716546 -0.0344793
0.2953748 0.1494871 -0.075772054 0.031659044 0.06407631 -0.030605305 -0.14488468 -0.054629248
0.12080713 0.05623451 0.3371367 0.2731176 0.21413615 -0.08539522 0.005480391 -0.18955888
0.013528824 -0.0013779051 0.10231466 0.4135091 0.26588944 0.16444118 0.10310416 0.026872542
0.12484621 -0.022577368 -0.00040408137 0.038422555 0.42448613 0.5703612 0.5166997 0.016152408
0.032046247 0.07533442 -0.0015163054 -0.016203813 -0.0011098264 0.036740396 -0.11220311 -0.06715475
-0.0073519484 -0.06643654 0.0146924155 0.06438225 0.019508624 0.021738244 0.038198415 0.075533874
0.21486771 0.21893553 0.24604759 0.08223862 0.08256183 0.16250919 0.08891913 0.16782069
0.14521597 0.13611418 0.10254728 0.17944448 0.5445743 0.46126887 0.09924009 0.0638812

network.0.bias f4 [32]
00000000: 8ef3 8b3e a95c d1bc b23f 08bd 7f1d b8bd
00000010: fd35 1d3e efd7 2ebd 6549 e73d ed11 09be
00000020: fc20 443e ad2c 143d ca00 503e 4461 a4bd
00000030: 571d f3bc d019 693e b31a 5f3c 67fd 14bd
00000040: 956a a03d 575c aabc 0a2f d6bc 50a2 213e
00000050: 48b4 74bd 9738 0c3e 51b5 0ebe 5cec 4c3e
00000060: c6c3 00be f349 8abd 7ea4 123e 60f2 8dbd
00000070: e2b1 ac3e 4288 11be 47a7 acbd 8565 d5bc
0.27334255 -0.02555688 -0.03326387 -0.08990001 0.15352626 -0.0426864 0.11293296 -0.13385744
0.19153208 0.03617542 0.20312801 -0.080263644 -0.029677076 0.22763753 0.013617205 -0.036374476
0.07832829 -0.020795984 -0.026145477 0.15784574 -0.059742242 0.13693462 -0.13936354 0.20012039
-0.12574682 -0.06752386 0.14320561 -0.06930995 0.33729464 -0.14212134 -0.08430343 -0.026049385

network.2.weight f4 [32, 32]
00000000: 00fd a13d 5f92 833d a1ea 60be 9f24 5cbe
00000010: 4bde 3ebe a469 c83d 0312 5f3c 6128 923d
00000020: b66c b9bd 4cde 1ebe 93f8 b73d 846c 69be
00000030: 85fb 59bd a25d cdbd 6517 973c 08bf b9bd
00000040: 919a 49be 4101 a9bc fe41 17be e9fc 1ebe
00000050: 6084 3fbc efb6 8cbd b695 1bbe 7528 11bc
00000060: 7394 01be 265e 28bd 8953 46be 0f78 383d
00000070: 199f 203d 9e2e 0bbe fbae 4ebd 8ffa e9bd
00000080: b646 b9bc 3212 7e3e a7c3 b3bd 7751 fc3d
00000090: a955 763e b67e cf3e 0e4c 0e3e 568d 6fbd
000000a0: ab0e 9f3e e0f1 b0bc 5861 853e 06db e93e
000000b0: 7d07 ffbc f22e 233e 6b7e 603e 00c1 663e
000000c0: 62da 023f ccfc 093d d2f0 37bd 6dec bf3e
000000d0: 8e9b bcbe 762a f53e 8e70 b2be 2de6 8c3e
000000e0: c216 f1be a71d b53a 5cd6 563e 6aef 89be
000000f0: a248 0fbf 21ac 083d a8ed 913d 213c 65be
00000100: 517c 4fbd fc2b b73e 98c3 033f 4b40 c93e
00000110: 2ea6 2b3e e75b 0dbf 40ca 673e c96a db3e
00000120: a01c 57be 03e7 073f fe3e 34be 42ad 7cbe
00000130: d447 0d3f dc52 8ebe e869 c53e 698b ba3e
00000140: 29a0 e7be 3483 0f3e 2402 193f 5bc9 73be
00000150: 3544 e43e 26eb bcbe d542 343f efe2 15be
00000160: 5b3e 233f d023 ba3e 55cd 02be 8ca2 063f
00000170: 767c cb3e 822e 1b3e 4d79 943d 3f28 f93e
00000180: 3b1b dd3d b874 afbd 0499 903d b47b b7bd
00000190: 9a95 043e 8896 043f 4c10 843e 9367 913d
000001a0: 97ec 7a3e b21b 71bd f121 e53e 9593 c73e
000001b0: 883b 0f3e 8949 f03c ec12 09be 2b8b 903b
000001c0: 7aca d13e b418 c53c dbc1 9ebe cd67 b63e
000001d0: 4ab3 00be c279 ee3e 245c 4abe f598 a53e
000001e0: 2c98 9ebe fe02 143d e194 b53e 7fb6 2fbe
000001f0: be9e 07be ee7a 093e bafb 0d3e 4271 69be
00000200: 8630 dbbe cffd 393e bf83 d93e e441 be3e
00000210: 2c69 4e3c 32c7 f5be c366 143e 3c40 273f
00000220: c1bc e5be a753 9e3e c634 b8be afbf 0ebf
00000230: 6750 933e db9c dcbe 6ea0 ab3e 286f ed3e
00000240: 12c0 89be 77b8 e7bd ce4a e43e 38e1 93be
00000250: 813d 253f 7a0e e9be 55b9 103f 7b5e 82bd
00000260: db95 ed3e 64d7 993e c7bf cebe 4ff6 123f
00000270: e054 57bd 0cdf 1cbe 7f3c c23d 03d5 dc3e
00000280: 7f34 d7bd d023 943e 9995 e63e 727f aa3e
00000290: 33c5 733e c7a4 efbe 097b 513e a812 053f
000002a0: 47bd febe a28c d93e bbfd fabe aefd d9be
000002b0: 0de0 e73e d662 c1bd b84c 7d3e 44fd 933e
000002c0: 75af 16bf fb01 293d b0e3 133f 674c a4be
000002d0: 0619 2b3f 25fb b5be 6b73 303f 73a7 3dbe
000002e0: 4ad1 033f 03c0 dc3e c74b 94be a8b0 143f
000002f0: 87ae 913e 8f04 183e 9afe a83d f606 153f
00000300: c4ed 56be 832f 6b3e 68d3 ab3e d095 983e
00000310: ecc5 733e 2dab 12bf 7bd8 5e3e 15d9 183f
00000320: ff69 f6be 6e3e 0c3f 481f 00bf 8bd1 92be
00000330: ed3d fb3e f23c b2be 7034 a33e 653a 513e
00000340: 6230 88be b2ab 17be 519c 103f 4fdd cdbe
00000350: 92c2 e13e 8121 a1be 0f80 2e3f e29d 64be
00000360: ec59 fa3e 8aed ef3e 4349 97be 82ff fa3e
00000370: 1ca5 9b3e 4ecf f8bd 02f8 0ebe 015c e53e
00000380: 5edb 413d 65d0 123e 3879 e63e 20e9 e73e
00000390: 21f7 833e beb3 afbe c8e2 013e e4df 0b3f
000003a0: eeaa 57be 324f ab3e 06b6 b8be 230c d7bd
000003b0: 9e71 833e 731a 86bc cc12 023e 47d2 823e
000003c0: 43ba 62be e7b8 603d 4175 ef3e 1a2f bcbd
000003d0: d5be 1e3f bbbb b8be 5f12 0c3f aa81 eebe
000003e0: 9d28 2d3f c775 033f df11 26bd d289 ce3e
000003f0: 0496 f63e b94c 22bd 981a b7bd 0a3f 0b3f
0.07909584 0.064244024 -0.21964504 -0.21498345 -0.18639486 0.09785774 0.013615134 0.07136608
-0.09053938 -0.15514487 0.08982959 -0.22795302 -0.053218383 -0.10027625 0.018443773 -0.090696394
-0.19687869 -0.02063048 -0.14771268 -0.15526165 -0.0116892755 -0.06870829 -0.15193829 -0.008859743
-0.12654285 -0.041105412 -0.19367804 0.04503637 0.039214227 -0.13592002 -0.050459843 -0.114247434
-0.022616725 0.24811628 -0.08777552 0.12320226 0.24056114 0.4052636 0.138962 -0.058484398
0.31065878 -0.02159971 0.2605083 0.45674914 -0.0311315 0.15935877 0.21923225 0.22534561
0.51114476 0.03368835 -0.0449074 0.37485066 -0.3683743 0.47883958 -0.34851497 0.2751936
-0.47087675 0.0013818041 0.20980209 -0.2694047 -0.55970204 0.03336728 0.071254075 -0.22386219
-0.050655667 0.35775745 0.5147033 0.39306864 0.16762611 -0.55218357 0.22635746 0.42854908
-0.21007013 0.5308687 -0.17602155 -0.24675468 0.55187726 -0.27797592 0.38557363 0.36434487
-0.4523938 0.14014894 0.5976889 -0.2380728 0.44583288 -0.36898154 0.7041448 -0.1463735
0.6376702 0.36355448 -0.1277364 0.52591777 0.39743394 0.1515446 0.07249699 0.48663518
0.107962094 -0.08567184 0.070604354 -0.089591414 0.12947693 0.5179219 0.25793684 0.07099833
0.24504314 -0.058864303 0.44752458 0.38979784 0.13987553 0.02933194 -0.13386124 0.0044111214
0.4097479 0.02405963 -0.31007275 0.3562607 -0.12568393 0.4657727 -0.19761711 0.3234326
-0.30975473 0.036135666 0.35465148 -0.1715946 -0.13244149 0.134258 0.13865557 -0.2279711
-0.42810458 0.18163227 0.42483327 0.37159646 0.012598317 -0.48003536 0.14492325 0.6533239
-0.4487057 0.30923197 -0.35977763 -0.55761236 0.2877228 -0.4308842 0.33520836 0.46373868
-0.2690435 -0.11314481 0.4458832 -0.28882766 0.6454697 -0.45518857 0.56532794 -0.06365677
0.46403393 0.30047143 -0.4038069 0.5740709 -0.052571177 -0.1531946 0.09484195 0.43131265
-0.1050806 0.28933573 0.4503601 0.33300358 0.23805694 -0.46805403 0.2045709 0.5198159
-0.49753782 0.42490107 -0.49021706 -0.42576355 0.45288125 -0.094426796 0.24736297 0.28904164
-0.58861476 0.041261654 0.577693 -0.3208954 0.6683506 -0.3554317 0.68926114 -0.18520908
0.51491225 0.43115243 -0.28964064 0.58082056 0.28453466 0.14845489 0.082516864 0.58213747
-0.20989138 0.22967343 0.33559728 0.29801798 0.2380597 -0.57292444 0.21762268 0.5970624
-0.48127744 0.5478276 -0.5004773 -0.28675494 0.49070683 -0.34812123 0.31875944 0.20432432
-0.26599413 -0.1481159 0.5648852 -0.40207908 0.44093758 -0.31470874 0.6816415 -0.22325853
0.4889673 0.46860915 -0.29548082 0.49023062 0.30399406 -0.12148915 -0.13961795 0.44796756
0.047328345 0.14337309 0.45014358 0.45295048 0.25774482 -0.3431682 0.12684166 0.54638505
-0.21061298 0.3345886 -0.36076373 -0.10500362 0.2567262 -0.016370034 0.12702483 0.25551054
-0.22141366 0.054863837 0.46769145 -0.091886714 0.62009937 -0.36080727 0.5471553 -0.465833
0.67640096 0.5135159 -0.040544387 0.40339524 0.48161328 -0.03962395 -0.08940619 0.54393065

network.2.bias f4 [32]
00000000: 1b70 b83d 496b 0dbe 4e6a c5bc 213c 403d
00000010: 1bcd 91bc 81ac 37be 83d8 8ebd 4a3c e13d
00000020: 2a38 273e b016 b53e 3a6b 5abd ad7f 543e
00000030: 2fe1 8fbd 6bfb 883e 01f6 7f3e 9684 fcbd
00000040: c1ff 1abe 9935 803b 68f7 823e aaf2 09bc
00000050: 1b86 adbc 04d0 383d 77b9 8f3d 4af7 d9bd
00000060: e075 4a3e 5450 1fbe 3477 15be fc8a 463d
00000070: e22f d6bd 6731 23bd abde 623e 1a18 7dbc
0.090057574 -0.13810457 -0.024098542 0.046932343 -0.017797997 -0.17936899 -0.0697489 0.10997827
0.16330019 0.35368872 -0.053324915 0.2075183 -0.07025372 0.26754317 0.24996187 -0.12329976
-0.15136625 0.0039126393 0.2557938 -0.008419672 -0.02118211 0.045120254 0.070177965 -0.1064287
0.19771528 -0.15557986 -0.14596254 0.04847239 -0.10458352 -0.039842036 0.22155254 -0.015447641

network.4.weight f4 [2, 32]
00000000: b67a f3bd 095b 03bf cc19 f63e 42a9 cbbe
00000010: cd1b 493f 5ccc 1c3f 6cbb fc3e 40c5 063f
00000020: 6b7a c6be b2e3 c0bd 1c2b 403f b751 783d
00000030: e54c 023f 3239 e7be e317 123f 5995 b5bd
00000040: d697 063e 867e 8d3d 28af 0ebf 2c55 303f
00000050: 649c cabe 871c 0b3d 4bfc d93e 77e3 4b3f
00000060: e9c0 bdbe 5b91 e5bc 9658 2c3f 95b1 313d
00000070: d526 133f 1602 babe 93f4 053f f4c6 513f
00000080: dd26 e73c 7215 323e 1015 1e3e 3467 bfbd
00000090: 427a 9b3e bd37 a33d ff70 af3d 618c 3f3e
000000a0: f0eb 053e 993a a6be 0321 1f3e 1ecb 8ebd
000000b0: eec3 fd3d 74a4 34be e640 8c3e f4c3 abbd
000000c0: 3b0b 0e3d 9251 82be ee0a 1fbe 3935 443d
000000d0: c4c9 0e3e 5c8f 183e a183 c33e 87e3 393e
000000e0: 8547 523e 5fdd c5bc 17da 163d 93eb 043e
000000f0: d493 7e3d 4f70 0e3e fe99 7f3e a2b0 fc3d
-0.1188864 -0.51310784 0.48066556 -0.3977757 0.78558046 0.6124933 0.49361742 0.5264473
-0.38765272 -0.094184294 0.7506578 0.060624804 0.5089858 -0.45160824 0.570677 -0.088663764
0.13143858 0.06908898 -0.5573602 0.6887996 -0.39572442 0.033962753 0.42575297 0.7964396
-0.3706124 -0.028023412 0.6732267 0.043382246 0.5748113 -0.36329716 0.52326316 0.81944203
0.028216774 0.17390993 0.15437722 -0.09345856 0.30366713 0.079696156 0.08566474 0.18705894
0.13078284 -0.3246658 0.15539937 -0.06972335 0.12390886 -0.17640859 0.27393264 -0.083869845
0.03467868 -0.25452858 -0.15531513 0.04790232 0.13944155 0.14898437 0.38186362 0.18153201
0.20535095 -0.02415341 0.03682908 0.1298049 0.0621527 0.1391003 0.24961087 0.123383775

network.4.bias f4 [2]
00000000: 8716 143e 1b19 19be
0.14461718 -0.14950983
